                 from  n    params  module                                  arguments
  0                -1  1      7040  models.common.Conv                      [3, 64, 6, 2, 2]
  1                -1  1     73984  models.common.Conv                      [64, 128, 3, 2]
  2                -1  3    156928  models.common.C3                        [128, 128, 128, 3]
  3                -1  1    295424  models.common.Conv                      [128, 256, 3, 2]
  4                -1  6   1118208  models.common.C3                        [256, 256, 256, 6]
  5                -1  1   1180672  models.common.Conv                      [256, 512, 3, 2]
  6                -1  9   6433792  models.common.C3                        [512, 512, 512, 9]
  7                -1  1   4720640  models.common.Conv                      [512, 1024, 3, 2]
/usr/lib/python3/dist-packages/torch/functional.py:445: UserWarning: torch.meshgrid: in an upcoming release, it will be required to pass the indexing argument. (Triggered internally at  ../aten/src/ATen/native/TensorShape.cpp:2156.)
  return _VF.meshgrid(tensors, **kwargs)  # type: ignore[attr-defined]
  8                -1  3  11569200  models.common.C3STR                     [1024, 1024, 3]
  9                -1  1   2624512  models.common.SPPF                      [1024, 1024, 5]
 10                -1  1    525312  models.common.Conv                      [1024, 512, 1, 1]
 11                -1  1         0  torch.nn.modules.upsampling.Upsample    [None, 2, 'nearest']
 12                -1  1    301568  models.common.LK                        [512, 512]
 13                 6  1    301568  models.common.LK                        [512, 512]
 14          [-1, 12]  1    531971  models.common.ConcatP4_up               [512, 1024]
 15                -1  3   2757632  models.common.C3                        [1024, 512, 512, 3, False]
 16                -1  1    131584  models.common.Conv                      [512, 256, 1, 1]
 17                -1  1         0  torch.nn.modules.upsampling.Upsample    [None, 2, 'nearest']
 18                -1  1     85248  models.common.LK                        [256, 256]
 19                 4  1     85248  models.common.LK                        [256, 256]
 20          [-1, 18]  1    134915  models.common.ConcatP3_up               [256, 512]
 21                -1  3    690688  models.common.C3                        [512, 256, 256, 3, False]
 22                -1  1     33024  models.common.Conv                      [256, 128, 1, 1]
 23                -1  1         0  torch.nn.modules.upsampling.Upsample    [None, 2, 'nearest']
 24                -1  1     26240  models.common.LK                        [128, 128]
 25                 2  1     26240  models.common.LK                        [128, 128]
 26          [-1, 24]  1     34691  models.common.ConcatP2_out              [128, 256]
 27                -1  1     98816  models.common.SPP                       [256, 128, [5, 9, 13]]
 28                -1  3    156928  models.common.C3                        [128, 128, 128, 3, False]
 29                -1  1    147712  models.common.Conv                      [128, 128, 3, 2]
 30                -1  1     26240  models.common.LK                        [128, 128]
 31                 4  1     85248  models.common.LK                        [256, 256]
 32                22  1     26240  models.common.LK                        [128, 128]
 33      [-1, 30, 31]  1    101380  models.common.ConcatP3_out              [128, 512, 256]
 34                -1  1    394240  models.common.SPP                       [512, 256, [5, 9, 13]]
 35                -1  3    625152  models.common.C3                        [256, 256, 256, 3, False]
 36                -1  1    590336  models.common.Conv                      [256, 256, 3, 2]
 37                -1  1     85248  models.common.LK                        [256, 256]
 38                 6  1    301568  models.common.LK                        [512, 512]
 39                16  1     85248  models.common.LK                        [256, 256]
 40      [-1, 37, 38]  1    399364  models.common.ConcatP4_out              [256, 1024, 512]
 41                -1  1   1574912  models.common.SPP                       [1024, 512, [3, 7, 11]]
 42                -1  3   2495488  models.common.C3                        [512, 512, 512, 3, False]
 43                -1  1   2360320  models.common.Conv                      [512, 512, 3, 2]
 44                -1  1    301568  models.common.LK                        [512, 512]
 45                10  1    301568  models.common.LK                        [512, 512]
 46          [-1, 44]  1    531971  models.common.ConcatP5_out              [512, 1024]
 47                -1  1   2624512  models.common.SPP                       [1024, 1024, [3, 5, 7]]
 48                -1  3  11569200  models.common.C3STR                     [1024, 1024, 3, False]
 49  [28, 35, 42, 48]  1     86580  models.yolo.Detect                      [10, [[0, 1, 2, 3, 4, 5], [0, 1, 2, 3, 4, 5], [0, 1, 2, 3, 4, 5], [0, 1, 2, 3, 4, 5]], [128, 256, 512, 1024]]
Model Summary: 773 layers, 58816168 parameters, 58816168 gradients, 1116.5 GFLOPs
Transferred 336/953 items from yolov5l.pt
Scaled weight_decay = 0.00036
[34m[1moptimizer:[39m[22m SGD with parameter groups 125 weight, 213 weight (no decay), 215 bias
…
